…
:"UAP生成对抗样本(Universal adversarial perturbations)","uri":"https://allen191819.xyz/uap/"},{"categories":["Advesarial Attack"],"content":"创建 simple_model 对象，并可视化网络 simple_model = torch.load(\"/home/allen/Workplace/Advesarial-Attack-toturial/UAP/model/simple_model.pkl\") optimizer = torch.optim.Adam(simple_model.parameters(), lr=0.001, betas=(0.9, 0.99)) loss_function = nn.CrossEntropyLoss() print(simple_model) import hiddenlayer as hl hl_graph = hl.build_graph(simple_model, torch.zeros([1,3,32,32]).to(device)) hl_graph.theme = hl.graph.THEMES[\"blue\"].copy() hl_graph Net( (conv1): Sequential( (0): Conv2d(3, 64, kernel_size=(3, 3), stride=(1, 1), padding=(1, 1), bias=False) (1): BatchNorm2d(64, eps=1e-05, momentum=0.1, affine=True, track_running_stats=True) (2): ReLU() ) (layer1): Sequential( (0): ResidualBlock( (left): Sequential( (0): Conv2d(64, 64, kernel_size=(3, 3), stride=(1, 1), padding=(1, 1), bias=False) (1): BatchNorm2d(64, eps=1e-05, momentum=0.1, affine=True, track_running_stats=True) (2): ReLU() (3): Conv2d(64, 64, kernel_size=(3, 3), stride=(1, 1), padding=(1, 1), bias=False) (4): BatchNorm2d(64, eps=1e-05, momentum=0.1, affine=True, track_running_stats=True) ) (shortcut): Sequential() (relu): ReLU() ) ) (layer2): Sequential( (0): ResidualBlock( (left): Sequential( (0): Conv2d(64, 128, kernel_size=(3, 3), stride=(2, 2), padding=(1, 1), bias=False) (1): BatchNorm2d(128, eps=1e-05, momentum=0.1, affine=True, track_running_stats=True) (2): ReLU() (3): Conv2d(128, 128, kernel_size=(3, 3), stride=(1, 1), padding=(1, 1), bias=False) (4): BatchNorm2d(128, eps=1e-05, momentum=0.1, affine=True, track_running_stats=True) ) (shortcut): Sequential( (0): Conv2d(64, 128, kernel_size=(1, 1), stride=(2, 2), bias=False) (1): BatchNorm2d(128, eps=1e-05, momentum=0.1, affine=True, track_running_stats=True) ) (relu): ReLU() ) ) (layer3): Sequential( (0): ResidualBlock( (left): Sequential( (0): Conv2d(128, 256, kernel_size=(3, 3), stride=(2, 2), padding=(1, 1), bias=False) (1): BatchNorm2d(256, eps=1e-05, momentum=0.1, affine=True, track_running_stats=True) (2): ReLU() (3): Conv2d(256, 256, kernel_size=(3, 3), stride=(1, 1), padding=(1, 1), bias=False) (4): BatchNorm2d(256, eps=1e-05, momentum=0.1, affine=True, track_running_stats=True) ) (shortcut): Sequential( (0): Conv2d(128, 256, kernel_size=(1, 1), stride=(2, 2), bias=False) (1): BatchNorm2d(256, eps=1e-05, momentum=0.1, affine=True, track_running_stats=True) ) (relu): ReLU() ) ) (layer4): Sequential( (0): ResidualBlock( (left): Sequential( (0): Conv2d(256, 512, kernel_size=(3, 3), stride=(2, 2), padding=(1, 1), bias=False) (1): BatchNorm2d(512, eps=1e-05, momentum=0.1, affine=True, track_running_stats=True) (2): ReLU() (3): Conv2d(512, 512, kernel_size=(3, 3), stride=(1, 1), padding=(1, 1), bias=False) (4): BatchNorm2d(512, eps=1e-05, momentum=0.1, affine=True, track_running_stats=True) ) (shortcut): Sequential( (0): Conv2d(256, 512, kernel_size=(1, 1), stride=(2, 2), bias=False) (1): BatchNorm2d(512, eps=1e-05, momentum=0.1, affine=True, track_running_stats=True) ) (relu): ReLU() ) ) (avg_pool2d): AvgPool2d(kernel_size=4, stride=4, padding=0) (fc): Linear(in_features=512, out_features=10, bias=True) ) /home/allen/.miniconda/envs/pytorch/lib/python3.7/site-packages/torch/onnx/symbolic_helper.py:446: UserWarning: ONNX export mode is set to inference mode, but operator batch_norm is set to inference mode. The model will be exported in inference, as specified by the export mode. training_mode + \", as specified by the export mode.\") ","date":"2021-11-
…
